…
[34m[1mhyperparameters: [0mlr0=0.01, lrf=0.01, momentum=0.937, weight_decay=0.0005, warmup_epochs=3.0, warmup_momentum=0.8, warmup_bias_lr=0.1, box=7.5, cls=0.5, cls_pw=1.0, obj=0.7, obj_pw=1.0, dfl=1.5, iou_t=0.2, anchor_t=5.0, fl_gamma=0.0, hsv_h=0.015, hsv_s=0.7, hsv_v=0.4, degrees=0.0, translate=0.1, scale=0.9, shear=0.0, perspective=0.0, flipud=0.0, fliplr=0.5, mosaic=1.0, mixup=0.15, copy_paste=0.3
[34m[1mTensorBoard: [0mStart with 'tensorboard --logdir runs/train-seg', view at http://localhost:6006/
Overriding model.yaml nc=80 with nc=4

                 from  n    params  module                                  arguments                     
  0                -1  1      1856  models.common.Conv                      [3, 64, 3, 2]                 
  1                -1  1     73984  models.common.Conv                      [64, 128, 3, 2]               
  2                -1  1    212864  models.common.RepNCSPELAN4              [128, 256, 128, 64, 1]        
  3                -1  1    164352  models.common.ADown                     [256, 256]                    
  4                -1  1    847616  models.common.RepNCSPELAN4              [256, 512, 256, 128, 1]       
  5                -1  1    656384  models.common.ADown                     [512, 512]                    
  6                -1  1   2857472  models.common.RepNCSPELAN4              [512, 512, 512, 256, 1]       
  7                -1  1    656384  models.common.ADown                     [512, 512]                    
  8                -1  1   2857472  models.common.RepNCSPELAN4              [512, 512, 512, 256, 1]       
  9                -1  1    656896  models.common.SPPELAN                   [512, 512, 256]               
 10                -1  1         0  torch.nn.modules.upsampling.Upsample    [None, 2, 'nearest']          
 11           [-1, 6]  1         0  models.common.Concat                    [1]                           
 12                -1  1   3119616  models.common.RepNCSPELAN4              [1024, 512, 512, 256, 1]      
 13                -1  1         0  torch.nn.modules.upsampling.Upsample    [None, 2, 'nearest']          
 14           [-1, 4]  1         0  models.common.Concat                    [1]                           
 15                -1  1    912640  models.common.RepNCSPELAN4              [1024, 256, 256, 128, 1]      
 16                -1  1    164352  models.common.ADown                     [256, 256]                    
 17          [-1, 12]  1         0  models.common.Concat                    [1]                           
 18                -1  1   2988544  models.common.RepNCSPELAN4              [768, 512, 512, 256, 1]       
 19                -1  1    656384  models.common.ADown                     [512, 512]                    
 20           [-1, 9]  1         0  models.common.Concat                    [1]                           
 21                -1  1   3119616  models.common.RepNCSPELAN4              [1024, 512, 512, 256, 1]      
 22      [15, 18, 21]  1   7629692  models.yolo.Segment                     [4, 32, 256, [256, 512, 512]] 
gelan-c-seg summary: 657 layers, 27576124 parameters, 27576108 gradients, 145.7 GFLOPs

[34m[1mAMP: [0mchecks passed ✅
WARNING ⚠️ --img-size 450 must be multiple of max stride 32, updating to 480
[34m[1moptimizer:[0m SGD(lr=0.01) with parameter groups 163 weight(decay=0.0), 173 weight(decay=0.0005), 172 bias
…
